Model/face_mask_CNN.tflite (tflite, 427768 bytes, 4 tensors)

sequential_4/conv2d_6/Conv2D i1 [32, 3, 3, 3]
0	0x7f	127
1	0x3e	62
2	0x2c	44
3	0xa1	-95
4	0xb1	-79
5	0x36	54
6	0xeb	-21
7	0x20	32
8	0xa0	-96
9	0xc7	-57
10	0xd2	-46
11	0x72	114
12	0xf9	-7
13	0xa2	-94
14	0xb4	-76
15	0x5d	93
16	0xe0	-32
17	0xa5	-91
18	0x09	9
19	0xfa	-6
20	0x21	33
21	0xab	-85
22	0xbb	-69
23	0x26	38
24	0x45	69
25	0x30	48
26	0x35	53
27	0x59	89
28	0x65	101
29	0x0d	13
30	0x85	-123
31	0x5b	91
32	0xba	-70
33	0xb3	-77
34	0x5a	90
35	0x7f	127
36	0xac	-84
37	0x6d	109
38	0xec	-20
39	0x47	71
40	0xdf	-33
41	0xd6	-42
42	0xe2	-30
43	0xa2	-94
44	0x73	115
45	0xaa	-86
46	0x03	3
47	0xfd	-3
48	0xa0	-96
49	0xab	-85
50	0xac	-84
51	0x63	99
52	0x06	6
53	0x47	71
54	0x4a	74
55	0xd0	-48
56	0xa1	-95
57	0x6b	107
58	0x5b	91
59	0xca	-54
60	0x47	71
61	0x51	81
62	0x52	82
63	0x81	-127
64	0x98	-104
65	0x30	48
66	0xe4	-28
67	0xe8	-24
68	0x29	41
69	0x2d	45
70	0x3a	58
71	0x0b	11
72	0xd8	-40
73	0xc6	-58
74	0xb9	-71
75	0xd9	-39
76	0x2a	42
77	0x38	56
78	0x9c	-100
79	0xa6	-90
80	0xc1	-63
81	0x3b	59
82	0x9b	-101
83	0x30	48
84	0x85	-123
85	0x01	1
86	0x92	-110
87	0x0d	13
88	0x6a	106
89	0x69	105
90	0x63	99
91	0xe0	-32
92	0xb5	-75
93	0x92	-110
94	0x65	101
95	0xb6	-74
96	0xa9	-87
97	0x53	83
98	0xbd	-67
99	0xaf	-81
100	0x4d	77
101	0x75	117
102	0x81	-127
103	0x3e	62
104	0x02	2
105	0x2c	44
106	0x3e	62
107	0x5f	95
108	0xb8	-72
109	0xb0	-80
110	0xa2	-94
111	0x72	114
112	0xbc	-68
113	0x3b	59
114	0x86	-122
115	0x0b	11
116	0x43	67
117	0x7f	127
118	0x01	1
119	0x58	88
120	0x39	57
121	0xa9	-87
122	0xf9	-7
123	0xf4	-12
124	0x1c	28
125	0x14	20
126	0x46	70
127	0x67	103
128	0x88	-120
129	0x92	-110
130	0x74	116
131	0x24	36
132	0x7f	127
133	0xc3	-61
134	0x33	51
135	0x54	84
136	0x66	102
137	0x6a	106
138	0xfa	-6
139	0x49	73
140	0xaf	-81
141	0x5a	90
142	0xe9	-23
143	0x83	-125
144	0x37	55
145	0x15	21
146	0x20	32
147	0x8c	-116
148	0x22	34
149	0x9f	-97
150	0x6b	107
151	0x5f	95
152	0xef	-17
153	0x1d	29
154	0x7f	127
155	0xc6	-58
156	0x42	66
157	0xa1	-95
158	0xac	-84
159	0x11	17
160	0x3b	59
161	0x0e	14
162	0x34	52
163	0x11	17
164	0x57	87
165	0x5b	91
166	0x5b	91
167	0x94	-108
168	0xb9	-71
169	0x2a	42
170	0x00	0
171	0xe9	-23
172	0xb1	-79
173	0x56	86
174	0x0f	15
175	0x41	65
176	0x41	65
177	0x6c	108
178	0x56	86
179	0xb1	-79
180	0x71	113
181	0xaa	-86
182	0x74	116
183	0xc1	-63
184	0x25	37
185	0xcb	-53
186	0xe6	-26
187	0x38	56
188	0x81	-127
189	0x7f	127
190	0x00	0
191	0x3c	60
192	0x3b	59
193	0x0f	15
194	0xaf	-81
195	0x41	65
196	0x8d	-115
197	0x4a	74
198	0x55	85
199	0x16	22
200	0x04	4
201	0xf2	-14
202	0x00	0
203	0x50	80
204	0xca	-54
205	0x84	-124
206	0x97	-105
207	0xcc	-52
208	0x9b	-101
209	0xbb	-69
210	0xab	-85
211	0xc4	-60
212	0xc3	-61
213	0x3b	59
214	0x38	56
215	0xef	-17
216	0x38	56
217	0x2f	47
218	0x2f	47
219	0xaa	-86
220	0x6b	107
221	0xb8	-72
222	0x27	39
223	0x4a	74
224	0x9a	-102
225	0x13	19
226	0x09	9
227	0x4a	74
228	0x72	114
229	0xb0	-80
230	0xd1	-47
231	0x81	-127
232	0xfc	-4
233	0xf1	-15
234	0xb7	-73
235	0x3e	62
236	0xd5	-43
237	0x52	82
238	0xea	-22
239	0x7c	124
240	0x96	-106
241	0x8a	-118
242	0xd9	-39
243	0x1e	30
244	0x0a	10
245	0x1c	28
246	0xeb	-21
247	0x3a	58
248	0xef	-17
249	0x93	-109
250	0x1a	26
251	0x4c	76
252	0xfe	-2
253	0x8d	-115
254	0x6a	106
255	0x81	-127

sequential_4/conv2d_7/Conv2D i1 [64, 3, 3, 32]
0	0xb1	-79
1	0xbb	-69
2	0x0b	11
3	0x21	33
4	0x2d	45
5	0xf9	-7
6	0x4a	74
7	0x1a	26
8	0x0c	12
9	0xf7	-9
10	0x13	19
11	0xf2	-14
12	0xc7	-57
13	0x04	4
14	0x0b	11
15	0xda	-38
16	0x2c	44
17	0xea	-22
18	0x1d	29
19	0x22	34
20	0xcf	-49
21	0xfb	-5
22	0x3a	58
23	0x29	41
24	0x11	17
25	0xb4	-76
26	0xbd	-67
27	0x2c	44
28	0xf7	-9
29	0xf1	-15
30	0xf1	-15
31	0xbc	-68
32	0xa8	-88
33	0xca	-54
34	0xbf	-65
35	0xc6	-58
36	0x43	67
37	0x0a	10
38	0x2e	46
39	0xdf	-33
40	0xb5	-75
41	0x35	53
42	0xd6	-42
43	0xfc	-4
44	0xad	-83
45	0x33	51
46	0xae	-82
47	0xd5	-43
48	0xc7	-57
49	0x0b	11
50	0xb9	-71
51	0xbf	-65
52	0xf7	-9
53	0x3f	63
54	0x01	1
55	0x2f	47
56	0xb4	-76
57	0x4e	78
58	0xfe	-2
59	0x44	68
60	0xcd	-51
61	0x16	22
62	0x44	68
63	0x09	9
64	0x00	0
65	0xce	-50
66	0xdd	-35
67	0x3d	61
68	0xbc	-68
69	0x32	50
70	0x2e	46
71	0x05	5
72	0xf1	-15
73	0x31	49
74	0xeb	-21
75	0xa0	-96
76	0xc7	-57
77	0x34	52
78	0x9c	-100
79	0x04	4
80	0x2a	42
81	0xf7	-9
82	0xd8	-40
83	0xc5	-59
84	0xc0	-64
85	0xfd	-3
86	0xd0	-48
87	0x36	54
88	0xd4	-44
89	0xfc	-4
90	0xdb	-37
91	0x3d	61
92	0xc1	-63
93	0xb7	-73
94	0x0b	11
95	0xd7	-41
96	0xd5	-43
97	0xe7	-25
98	0xa7	-89
99	0x32	50
100	0xd7	-41
101	0xf1	-15
102	0x1e	30
103	0xb2	-78
104	0x3f	63
105	0x4c	76
106	0xf6	-10
107	0xf5	-11
108	0xe6	-26
109	0xfd	-3
110	0xb4	-76
111	0xa7	-89
112	0x2f	47
113	0xaf	-81
114	0xed	-19
115	0x28	40
116	0x3d	61
117	0x9d	-99
118	0xfe	-2
119	0x27	39
120	0x3e	62
121	0x3b	59
122	0xd0	-48
123	0xcd	-51
124	0x2b	43
125	0x9e	-98
126	0x24	36
127	0x30	48
128	0xa0	-96
129	0xc4	-60
130	0x2a	42
131	0x04	4
132	0x03	3
133	0x19	25
134	0x42	66
135	0x81	-127
136	0xf5	-11
137	0x43	67
138	0x29	41
139	0xdf	-33
140	0x2d	45
141	0x34	52
142	0x1f	31
143	0x21	33
144	0x57	87
145	0x21	33
146	0x11	17
147	0xc5	-59
148	0x29	41
149	0xad	-83
150	0x24	36
151	0xc9	-55
152	0x06	6
153	0x02	2
154	0xbb	-69
155	0xa6	-90
156	0xdd	-35
157	0xa6	-90
158	0x28	40
159	0xec	-20
160	0xbb	-69
161	0x9d	-99
162	0x43	67
163	0x28	40
164	0x00	0
165	0x40	64
166	0xf2	-14
167	0x13	19
168	0xb9	-71
169	0x23	35
170	0x26	38
171	0xec	-20
172	0xb0	-80
173	0x14	20
174	0xa9	-87
175	0xbf	-65
176	0x07	7
177	0x97	-105
178	0x2a	42
179	0x1b	27
180	0xd7	-41
181	0x49	73
182	0x19	25
183	0xc5	-59
184	0xf6	-10
185	0x0b	11
186	0xd7	-41
187	0x13	19
188	0xd7	-41
189	0x11	17
190	0x2b	43
191	0xb5	-75
192	0x32	50
193	0x19	25
194	0x4e	78
195	0xb6	-74
196	0xcf	-49
197	0xbb	-69
198	0x25	37
199	0xa9	-87
200	0xbc	-68
201	0x22	34
202	0xa5	-91
203	0x90	-112
204	0x02	2
205	0xef	-17
206	0xdc	-36
207	0x36	54
208	0xb2	-78
209	0xa5	-91
210	0x08	8
211	0xf4	-12
212	0x2c	44
213	0x00	0
214	0x29	41
215	0xd7	-41
216	0x07	7
217	0x4b	75
218	0xc3	-61
219	0xfe	-2
220	0x39	57
221	0xbb	-69
222	0x0a	10
223	0x31	49
224	0xc6	-58
225	0xef	-17
226	0x06	6
227	0xcd	-51
228	0x09	9
229	0xda	-38
230	0x0d	13
231	0xcc	-52
232	0xba	-70
233	0x46	70
234	0xba	-70
235	0xf2	-14
236	0x28	40
237	0x4f	79
238	0x0d	13
239	0x08	8
240	0xe5	-27
241	0xe1	-31
242	0xf3	-13
243	0xff	-1
244	0xbf	-65
245	0x9f	-97
246	0xd4	-44
247	0x40	64
248	0xca	-54
249	0x4e	78
250	0xdd	-35
251	0xfb	-5
252	0x1e	30
253	0x39	57
254	0x2e	46
255	0x31	49

sequential_4/dense_6/MatMul i1 [32, 12544] scale=0.0006662885 zero_point=0
0	0xfc	-0.002665154
1	0x12	0.011993193
2	0x1d	0.019322366
3	0x00	0.0
4	0xf6	-0.0066628847
5	0xe5	-0.017989788
6	0x16	0.014658347
7	0x10	0.010660616
8	0x1b	0.017989788
9	0xdf	-0.02198752
10	0x05	0.0033314424
11	0xd8	-0.026651539
12	0x20	0.021321231
13	0xe3	-0.019322366
14	0xe9	-0.015324635
15	0x17	0.015324635
16	0xef	-0.011326904
17	0xde	-0.022653809
18	0xe8	-0.015990924
19	0x0f	0.009994327
20	0xe6	-0.017323501
21	0x1a	0.017323501
22	0x16	0.014658347
23	0x1c	0.018656077
24	0x0d	0.008661751
25	0xf0	-0.010660616
26	0xdb	-0.024652675
27	0xde	-0.022653809
28	0x11	0.011326904
29	0xf1	-0.009994327
30	0x0f	0.009994327
31	0xf7	-0.0059965965
32	0x0b	0.0073291734
33	0xfc	-0.002665154
34	0xf6	-0.0066628847
35	0x12	0.011993193
36	0xff	-0.0006662885
37	0x10	0.010660616
38	0xfe	-0.001332577
39	0xf0	-0.010660616
40	0xe7	-0.016657213
41	0xff	-0.0006662885
42	0x25	0.024652675
43	0x09	0.0059965965
44	0x02	0.001332577
45	0xe3	-0.019322366
46	0x12	0.011993193
47	0x10	0.010660616
48	0xe6	-0.017323501
49	0xf3	-0.008661751
50	0xf6	-0.0066628847
51	0xe4	-0.018656077
52	0xe8	-0.015990924
53	0xe6	-0.017323501
54	0x19	0.016657213
55	0x14	0.013325769
56	0x02	0.001332577
57	0x1e	0.019988654
58	0x06	0.003997731
59	0xdf	-0.02198752
60	0x1c	0.018656077
61	0xf1	-0.009994327
62	0xf5	-0.0073291734
63	0x0e	0.009328038
64	0xfd	-0.0019988655
65	0xea	-0.014658347
66	0xf0	-0.010660616
67	0xee	-0.011993193
68	0xf5	-0.0073291734
69	0xdc	-0.023986386
70	0x0b	0.0073291734
71	0xe4	-0.018656077
72	0xfd	-0.0019988655
73	0xeb	-0.013992058
74	0x13	0.012659481
75	0xe1	-0.020654943
76	0x00	0.0
77	0x08	0.005330308
78	0x08	0.005330308
79	0xec	-0.013325769
80	0xe0	-0.021321231
81	0x15	0.013992058
82	0x0a	0.0066628847
83	0x06	0.003997731
84	0x11	0.011326904
85	0x14	0.013325769
86	0xf9	-0.004664019
87	0x14	0.013325769
88	0xff	-0.0006662885
89	0xe5	-0.017989788
90	0xdb	-0.024652675
91	0xdc	-0.023986386
92	0x0d	0.008661751
93	0x1e	0.019988654
94	0x16	0.014658347
95	0xd7	-0.027317828
96	0x16	0.014658347
97	0x1c	0.018656077
98	0xdf	-0.02198752
99	0x0c	0.007995462
100	0xf3	-0.008661751
101	0xef	-0.011326904
102	0xf3	-0.008661751
103	0x03	0.0019988655
104	0x10	0.010660616
105	0xeb	-0.013992058
106	0xe6	-0.017323501
107	0xd6	-0.027984116
108	0xee	-0.011993193
109	0x1c	0.018656077
110	0xea	-0.014658347
111	0xf9	-0.004664019
112	0x0d	0.008661751
113	0x18	0.015990924
114	0xdd	-0.023320097
115	0xec	-0.013325769
116	0xe8	-0.015990924
117	0xef	-0.011326904
118	0x1e	0.019988654
119	0xfa	-0.003997731
120	0xdb	-0.024652675
121	0xfb	-0.0033314424
122	0xea	-0.014658347
123	0x03	0.0019988655
124	0xe8	-0.015990924
125	0xff	-0.0006662885
126	0x15	0.013992058
127	0xe5	-0.017989788
128	0xe6	-0.017323501
129	0xf6	-0.0066628847
130	0x01	0.0006662885
131	0xe1	-0.020654943
132	0x05	0.0033314424
133	0xe0	-0.021321231
134	0xe3	-0.019322366
135	0xf2	-0.009328038
136	0x1c	0.018656077
137	0x0e	0.009328038
138	0xee	-0.011993193
139	0xdf	-0.02198752
140	0x18	0.015990924
141	0xe6	-0.017323501
142	0x16	0.014658347
143	0x08	0.005330308
144	0x16	0.014658347
145	0x22	0.022653809
146	0xe9	-0.015324635
147	0xf7	-0.0059965965
148	0xf7	-0.0059965965
149	0x05	0.0033314424
150	0x10	0.010660616
151	0xf0	-0.010660616
152	0xf0	-0.010660616
153	0xfb	-0.0033314424
154	0x11	0.011326904
155	0xd3	-0.029982982
156	0xdb	-0.024652675
157	0xea	-0.014658347
158	0x02	0.001332577
159	0xed	-0.012659481
160	0x0d	0.008661751
161	0xe5	-0.017989788
162	0xec	-0.013325769
163	0x03	0.0019988655
164	0xe8	-0.015990924
165	0xf5	-0.0073291734
166	0xe3	-0.019322366
167	0x25	0.024652675
168	0x09	0.0059965965
169	0x13	0.012659481
170	0x12	0.011993193
171	0xd7	-0.027317828
172	0xf4	-0.007995462
173	0x09	0.0059965965
174	0xec	-0.013325769
175	0x04	0.002665154
176	0x01	0.0006662885
177	0xfa	-0.003997731
178	0xeb	-0.013992058
179	0xf1	-0.009994327
180	0xe4	-0.018656077
181	0x16	0.014658347
182	0x0d	0.008661751
183	0xd8	-0.026651539
184	0x11	0.011326904
185	0x16	0.014658347
186	0x0f	0.009994327
187	0xd9	-0.02598525
188	0x08	0.005330308
189	0x1d	0.019322366
190	0xf0	-0.010660616
191	0xff	-0.0006662885
192	0xe9	-0.015324635
193	0x0a	0.0066628847
194	0xd7	-0.027317828
195	0xdd	-0.023320097
196	0xe1	-0.020654943
197	0xf4	-0.007995462
198	0xef	-0.011326904
199	0x18	0.015990924
200	0xe1	-0.020654943
201	0xe8	-0.015990924
202	0xe0	-0.021321231
203	0x09	0.0059965965
204	0x07	0.004664019
205	0x04	0.002665154
206	0x08	0.005330308
207	0xf1	-0.009994327
208	0xe8	-0.015990924
209	0xf1	-0.009994327
210	0xe9	-0.015324635
211	0xf9	-0.004664019
212	0x14	0.013325769
213	0xe0	-0.021321231
214	0x20	0.021321231
215	0x15	0.013992058
216	0xec	-0.013325769
217	0x0e	0.009328038
218	0xde	-0.022653809
219	0xff	-0.0006662885
220	0xe9	-0.015324635
221	0xf1	-0.009994327
222	0x13	0.012659481
223	0x10	0.010660616
224	0x16	0.014658347
225	0x19	0.016657213
226	0x06	0.003997731
227	0xe2	-0.019988654
228	0xf7	-0.0059965965
229	0x07	0.004664019
230	0x0f	0.009994327
231	0x14	0.013325769
232	0xdd	-0.023320097
233	0x0b	0.0073291734
234	0x03	0.0019988655
235	0xf2	-0.009328038
236	0x14	0.013325769
237	0x1f	0.020654943
238	0xe4	-0.018656077
239	0xef	-0.011326904
240	0xe8	-0.015990924
241	0xdf	-0.02198752
242	0xe7	-0.016657213
243	0xf7	-0.0059965965
244	0x18	0.015990924
245	0xe3	-0.019322366
246	0xe5	-0.017989788
247	0xf4	-0.007995462
248	0x0b	0.0073291734
249	0xf9	-0.004664019
250	0xf1	-0.009994327
251	0xd8	-0.026651539
252	0x06	0.003997731
253	0xe8	-0.015990924
254	0x00	0.0
255	0xfc	-0.002665154

sequential_4/dense_7/MatMul i1 [2, 32] scale=0.0032845398 zero_point=0
0	0x2c	0.14451975
1	0xd8	-0.13138159
2	0x3b	0.19378784
3	0xd6	-0.13795067
4	0xab	-0.2791859
5	0xdf	-0.10838981
6	0xcd	-0.16751152
7	0x17	0.07554442
8	0x77	0.39086023
9	0x9b	-0.33173853
10	0x9f	-0.31860036
11	0x46	0.22991778
12	0x2c	0.14451975
13	0xf6	-0.032845397
14	0x6a	0.34816122
15	0xd6	-0.13795067
16	0xe4	-0.09196711
17	0x75	0.38429114
18	0xd4	-0.14451975
19	0x16	0.07225987
20	0x6c	0.3547303
21	0x7c	0.40728295
22	0xa4	-0.30217767
23	0x36	0.17736515
24	0x7d	0.41056746
25	0xf2	-0.045983557
26	0xe4	-0.09196711
27	0xac	-0.27590135
28	0x10	0.052552637
29	0xac	-0.27590135
30	0x72	0.37443754
31	0x46	0.22991778
32	0xbe	-0.21677962
33	0x43	0.22006416
34	0xb9	-0.23320232
35	0xa2	-0.30874676
36	0x4e	0.2561941
37	0x7f	0.41713655
38	0xb2	-0.2561941
39	0xcf	-0.16094245
40	0xd4	-0.14451975
41	0x99	-0.3383076
42	0x84	-0.40728295
43	0xf0	-0.052552637
44	0xa7	-0.29232404
45	0x45	0.22663325
46	0xc6	-0.19050331
47	0x49	0.23977141
48	0x28	0.13138159
49	0x72	0.37443754
50	0xb8	-0.23648687
51	0xe6	-0.08539803
52	0xda	-0.12481251
53	0x56	0.28247043
54	0x75	0.38429114
55	0x26	0.12481251
56	0x30	0.1576579
57	0xbd	-0.22006416
58	0xe5	-0.08868258
59	0x4e	0.2561941
60	0xd1	-0.15437338
61	0xba	-0.22991778
62	0xfa	-0.019707238
63	0xfe	-0.0065690796
